{
  "name": "model",
  "modelTopology": {
    "class_name": "Sequential",
    "config": {
      "name": "sequential_1",
      "layers": [
        {
          "class_name": "Dense",
          "config": {
            "units": 182,
            "activation": "relu",
            "use_bias": true,
            "kernel_initializer": {
              "class_name": "VarianceScaling",
              "config": {
                "scale": 1,
                "mode": "fan_avg",
                "distribution": "normal",
                "seed": null
              }
            },
            "bias_initializer": {
              "class_name": "Zeros",
              "config": {}
            },
            "kernel_regularizer": null,
            "bias_regularizer": null,
            "activity_regularizer": null,
            "kernel_constraint": null,
            "bias_constraint": null,
            "name": "dense_Dense1",
            "trainable": true,
            "batch_input_shape": [
              null,
              91
            ],
            "dtype": "float32"
          }
        },
        {
          "class_name": "Dense",
          "config": {
            "units": 182,
            "activation": "relu",
            "use_bias": true,
            "kernel_initializer": {
              "class_name": "VarianceScaling",
              "config": {
                "scale": 1,
                "mode": "fan_avg",
                "distribution": "normal",
                "seed": null
              }
            },
            "bias_initializer": {
              "class_name": "Zeros",
              "config": {}
            },
            "kernel_regularizer": null,
            "bias_regularizer": null,
            "activity_regularizer": null,
            "kernel_constraint": null,
            "bias_constraint": null,
            "name": "dense_Dense2",
            "trainable": true
          }
        },
        {
          "class_name": "Dense",
          "config": {
            "units": 91,
            "activation": "relu",
            "use_bias": true,
            "kernel_initializer": {
              "class_name": "VarianceScaling",
              "config": {
                "scale": 1,
                "mode": "fan_avg",
                "distribution": "normal",
                "seed": null
              }
            },
            "bias_initializer": {
              "class_name": "Zeros",
              "config": {}
            },
            "kernel_regularizer": null,
            "bias_regularizer": null,
            "activity_regularizer": null,
            "kernel_constraint": null,
            "bias_constraint": null,
            "name": "dense_Dense3",
            "trainable": true
          }
        },
        {
          "class_name": "Dense",
          "config": {
            "units": 91,
            "activation": "relu",
            "use_bias": true,
            "kernel_initializer": {
              "class_name": "VarianceScaling",
              "config": {
                "scale": 1,
                "mode": "fan_avg",
                "distribution": "normal",
                "seed": null
              }
            },
            "bias_initializer": {
              "class_name": "Zeros",
              "config": {}
            },
            "kernel_regularizer": null,
            "bias_regularizer": null,
            "activity_regularizer": null,
            "kernel_constraint": null,
            "bias_constraint": null,
            "name": "dense_Dense4",
            "trainable": true
          }
        },
        {
          "class_name": "Dense",
          "config": {
            "units": 13,
            "activation": "softmax",
            "use_bias": true,
            "kernel_initializer": {
              "class_name": "VarianceScaling",
              "config": {
                "scale": 1,
                "mode": "fan_avg",
                "distribution": "normal",
                "seed": null
              }
            },
            "bias_initializer": {
              "class_name": "Zeros",
              "config": {}
            },
            "kernel_regularizer": null,
            "bias_regularizer": null,
            "activity_regularizer": null,
            "kernel_constraint": null,
            "bias_constraint": null,
            "name": "dense_Dense5",
            "trainable": true
          }
        }
      ]
    },
    "keras_version": "tfjs-layers 4.22.0",
    "backend": "tensor_flow.js"
  },
  "weightSpecs": [
    {
      "name": "dense_Dense1/kernel",
      "shape": [
        91,
        182
      ],
      "dtype": "float32"
    },
    {
      "name": "dense_Dense1/bias",
      "shape": [
        182
      ],
      "dtype": "float32"
    },
    {
      "name": "dense_Dense2/kernel",
      "shape": [
        182,
        182
      ],
      "dtype": "float32"
    },
    {
      "name": "dense_Dense2/bias",
      "shape": [
        182
      ],
      "dtype": "float32"
    },
    {
      "name": "dense_Dense3/kernel",
      "shape": [
        182,
        91
      ],
      "dtype": "float32"
    },
    {
      "name": "dense_Dense3/bias",
      "shape": [
        91
      ],
      "dtype": "float32"
    },
    {
      "name": "dense_Dense4/kernel",
      "shape": [
        91,
        91
      ],
      "dtype": "float32"
    },
    {
      "name": "dense_Dense4/bias",
      "shape": [
        91
      ],
      "dtype": "float32"
    },
    {
      "name": "dense_Dense5/kernel",
      "shape": [
        91,
        13
      ],
      "dtype": "float32"
    },
    {
      "name": "dense_Dense5/bias",
      "shape": [
        13
      ],
      "dtype": "float32"
    }
  ],
  "weightData": "…"
}